best_models/Model1_best.model (torch, 278461 bytes, 20 tensors)

conv1.weight f4 [32, 1, 4, 4]
-0.0525635 0.0024916737 -0.15820205 0.06728173 -0.00079109747 0.23930281 0.20243831 0.05477495
-0.10299739 -0.20156771 -0.053932723 -0.065328196 0.12740777 -0.25269833 0.28347048 -0.15461574
0.004157761 -0.19788131 0.038759544 -0.032887578 -0.0751191 -0.049291678 0.23044749 -0.036244236
0.22692113 -0.0835935 0.4214829 0.124177136 0.10433555 0.20775701 0.04055875 0.13198222
-0.0881072 -0.1608281 -0.06423447 -0.19828136 0.083534285 -0.17867506 -0.20086682 0.17236452
0.26194453 0.0203191 -0.045226917 -0.017024502 0.17390233 -0.19664037 -0.14775652 0.30588862
0.3073485 -0.0033932037 -0.18956876 0.07299141 -0.1288434 -0.084894106 0.09433438 0.08034247
-0.032028172 -0.0054570455 0.11638503 -0.2565026 -0.1520525 -0.009969471 -0.17200738 -0.07893972
0.09132021 0.104955986 -0.056388486 -0.18642436 0.1942529 -0.16372633 -0.08662243 0.18795902
0.12943332 0.014348682 0.10427415 -0.09973065 0.29561076 -0.20757367 -0.07817727 -0.076862685
-0.111299545 -0.08557564 0.13547157 0.14211076 0.00548985 0.21768995 -0.22540416 -0.14894024
0.14159034 -0.0021700712 -0.26241726 -0.17064716 -0.1540075 0.21809098 0.112656 0.22030446
-0.29414064 -0.27641398 -0.19091378 0.046573553 -0.097271815 -0.12842558 0.17679778 -0.023485802
-0.11119073 0.16924284 0.016745817 0.25751686 0.14038141 0.12754299 0.19805792 0.012342097
0.013881301 -0.10988928 -0.029672395 0.053324953 -0.12139892 -0.20016325 0.31604034 -0.31982368
-0.0340667 -0.03853916 -0.16933273 -0.08140714 0.045025166 0.0819724 -0.19630687 0.14687757
-0.25481442 0.13650948 0.24417882 0.14423658 -0.19714925 0.12063886 0.23515391 0.0149899945
-0.10728448 0.0645936 0.059597544 -0.020114537 -0.2943337 -0.19477202 0.024980098 0.0319408
0.2386068 0.06948886 -0.033600364 -0.21212867 -0.2263503 0.16834965 0.2722667 0.051393483
-0.22852205 0.14106081 0.2502159 -0.11492264 -0.08570538 0.05430909 -0.14000824 -0.21547219
0.1639678 -0.18411258 -0.048636604 -0.17760268 0.26250023 0.09716921 0.13771176 -0.1938082
0.30756146 0.051623307 -0.1243304 0.0059315194 -0.11613401 -0.013005799 0.12405419 -0.13313289
0.12630776 0.019372372 -0.08066022 -0.00813565 -0.15663739 -0.1316322 -0.25720748 0.008605184
0.14970134 0.10075815 0.18811752 0.2347803 0.19104604 -0.31501263 0.066909745 -0.092171565
0.16943273 -0.0036664277 0.06647994 -0.27503967 0.17904997 0.2508813 -0.06867673 -0.2641291
-0.12744664 -0.021978887 -0.022351313 -0.04030556 0.065466054 0.17301473 -0.07644979 -0.00047407826
-0.11612028 0.33679476 0.1169234 -0.06905455 0.23356922 0.17015067 0.011814984 -0.120555304
0.09255227 0.050305083 -0.12723103 -0.039080728 0.056274295 -0.13394356 0.043909866 -0.11868271
-0.1934175 -0.1448371 -0.21012071 0.047319837 0.18720978 0.26286504 0.27086672 0.121633075
0.1274497 -0.037976854 0.2311316 -0.07229469 -0.102870725 -0.102085195 -0.18576704 -0.19329494
0.03215971 0.24250582 -0.11699841 -0.25848094 0.0057538413 0.24007079 0.02586121 -0.09079861
-0.012565558 0.22845441 -0.27329987 0.057439078 0.10689333 0.14100045 -0.18358131 -0.15094352
00000000: d34c 57bd 594b 233b b8ff 21be 01cb 893d
00000010: a761 4fba cc0b 753e fd4b 4f3e b35b 603d
00000020: 4cf0 d2bd c467 4ebe 8fe8 5cbd caca 85bd
00000030: 2f77 023e ad61 81be 0b23 913e 9753 1ebe
00000040: d43d 883b 66a1 4abe 54c2 1e3d 20b5 06bd
00000050: 0bd8 99bd 12e6 49bd 6dfa 6b3e d674 14bd
00000060: 035e 683e 1233 abbd 9bcc d73e 9550 fe3d
00000070: e0ad d53d 41be 543e ef20 263d 5926 073e
00000080: 8c71 b4bd 1fb0 24be 5d8d 83bd 450a 4bbe
00000090: 0614 ab3d 98f6 36be 08b0 4dbe 5380 303e
000000a0: 981d 863e 3e74 a63c dc3f 39bd f876 8bbc
000000b0: 7413 323e 185c 49be 7c4d 17be 6f9d 9c3e
000000c0: c85c 9d3e 8360 5ebb 501e 42be 857c 953d
000000d0: 86ef 03be f6dc adbd 6232 c13d 988a a43d
000000e0: f92f 03bd 04d1 b2bb 465b ee3d 4f54 83be
000000f0: a7b3 1bbe fe56 23bc b422 30be 26ab a1bd
00000100: 1706 bb3d 2af3 d63d 9df7 66bd 07e6 3ebe
00000110: 3bea 463e e0a7 27be 1a67 b1bd 5478 403e
00000120: 2b8a 043e bc16 6b3c b08d d53d 953f ccbd
00000130: 4b5a 973e 318e 54be 681b a0bd 2f6a 9dbd
00000140: 04f1 e3bd 4842 afbd 0fb9 0a3e 7c85 113e
00000150: 33e4 b33b 1dea 5e3e 59d0 66be ca83 18be
00000160: 0ffd 103e c137 0ebb 8e5b 86be 21be 2ebe
00000170: 24b4 1dbe 3e53 5f3e 30b8 e63d 7e97 613e
00000180: 9a99 96be 2286 8dbe e77e 43be e9c3 3e3d
00000190: 7236 c7bd ff81 03be 7a0a 353e 4c65 c0bc
000001a0: f7b7 e3bd ff4d 2d3e 862e 893c 40d9 833e
000001b0: 25c0 0f3e a19a 023e b2cf 4a3e 8236 4a3c
000001c0: 656e 633c a10d e1bd 8613 f3bc 446b 5a3d
000001d0: ff9f f8bd 98f7 4cbe 0ad0 a13e eebf a3be
000001e0: 8689 0bbd 3ddb 1dbd 8f65 2dbe c9b8 a6bd
000001f0: 4f6c 383d 25e1 a73d ab04 49be 1367 163e
00000200: 0977 82be 24c9 0b3e 030a 7a3e c1b2 133e
00000210: 7ee1 49be 8211 f73d 30cc 703e 9898 753c
00000220: f7b7 dbbd a649 843d 8e1c 743d 3ec7 a4bc
00000230: e8b2 96be 5172 47be 10a3 cc3c 5bd4 023d
00000240: 5755 743e 2d50 8e3d 89a0 09bd 4238 59be
00000250: 5fc8 67be da63 2c3e 8a66 8b3e f981 523d
00000260: af01 6abe 3f72 103e 4c1c 803e 905c ebbd
00000270: 4d86 afbd 3573 5e3d 525e 0fbe bea4 5cbe
00000280: 2de7 273e 0288 3cbe 2d37 47bd 7add 35be
00000290: 6e66 863e a700 c73d 5004 0d3e a875 46be
000002a0: b278 9d3e f672 533d f0a0 febd 315d c23b
000002b0: abd7 edbd 4616 55bc 2010 fe3d fd53 08be
000002c0: d256 013e cfb2 9e3c 2f31 a5bd 644b 05bc
000002d0: 8d65 20be 97ca 06be b3b0 83be c2fc 0c3c
000002e0: 4f4b 193e 4a5a ce3d e1a1 403e 3f6a 703e
000002f0: 93a1 433e 5649 a1be fa07 893d 72c4 bcbd
00000300: c67f 2d3e 7348 70bb a326 883d 00d2 8cbe
00000310: e058 373e 8473 803e 63a6 8cbd ee3b 87be
00000320: 5f81 02be 110d b4bc 1a1a b7bc 7117 25bd
00000330: 1113 863d c62a 313e b591 9cbd b58d f8b9
00000340: 78d0 edbd 5d70 ac3e 8975 ef3d 796c 8dbd
00000350: c52c 6f3e fa3b 2e3e a293 413c b3e5 f6bd
00000360: 0b8c bd3d b40c 4e3d da48 02be 1d13 20bd
00000370: e07f 663d 8028 09be d5da 333d ec0f f3bd
00000380: 3d0f 46be 2d50 14be e229 57be 72d2 413d
00000390: ecb3 3f3e 3f96 863e 0baf 8a3e c31a f93d
000003a0: 2d82 023e 9e8d 1bbd c3ad 6c3e 3d0f 94bd
000003b0: e3ad d2bd 0b12 d1bd b739 3ebe 1cef 45be
000003c0: e6b9 033d 7253 783e dd9c efbd 9d57 84be
000003d0: b88a bc3b 1ed5 753e e3da d33c 9ff4 b9bd
000003e0: c5df 4dbc f4ef 693e f6ed 8bbe 3d45 6b3d
000003f0: e4ea da3d 6c62 103e bdfc 3bbe f090 1abe

conv1.bias f4 [32]
-0.1833423 -0.19402912 -0.09518967 -0.0028619848 -0.116669185 0.2070218 0.021472812 0.030864956
-0.050195783 0.087354325 0.061294254 -0.06781929 0.3392678 0.15778469 0.042833082 0.13265115
-0.025424166 -0.33708587 0.15187657 0.13603933 0.0051680887 -0.17319676 0.16729559 0.09233316
-0.14295965 -0.19673355 -0.09465269 0.12538484 0.12803067 -0.15885647 0.19835633 0.39190325
00000000: 15be 3bbe 92af 46be cdf2 c2bd 2390 3bbb
00000010: 41f0 eebd 86fd 533e c0e7 af3c 81d8 fc3c
00000020: 189a 4dbd d3e6 b23d af0f 7b3d d7e4 8abd
00000030: 82b4 ad3e 4f92 213e be71 2f3d b4d5 073e
00000040: 5746 d0bc 8596 acbe 8885 1b3e e54d 0b3e
00000050: 1259 a93b 7e5a 31be 894f 2b3e 2b19 bd3d
00000060: 0464 12be 8574 49be 45d9 c1bd e264 003e
00000070: 791a 033e 45ab 22be ec1d 4b3e 8ba7 c83e

conv1_bn.weight f4 [32]
0.88979334 0.8269551 0.81439877 0.8976653 0.7122316 1.0286113 1.1288378 0.9054901
1.2261188 0.90449256 0.87926924 1.0375254 1.1268582 0.742731 1.0288829 1.2047243
0.86968833 0.83948815 1.1187935 0.9285626 0.87864 1.1431955 0.78925747 0.7067099
0.8757716 0.8859003 0.814898 0.9293505 0.9254467 0.8616051 0.9919685 1.0171067
00000000: 7fc9 633f 54b3 533f 707c 503f 65cd 653f
00000010: cf54 363f 89a9 833f c27d 903f 33ce 673f
00000020: 76f1 9c3f d38c 673f ca17 613f a2cd 843f
00000030: e43c 903f 9e23 3e3f 6fb2 833f 6834 9a3f
00000040: e5a3 5e3f b2e8 563f a034 8f3f 47b6 6d3f
00000050: 8dee 603f 3b54 923f c70c 4a3f f1ea 343f
00000060: 9132 603f 5dca 623f 289d 503f eae9 6d3f
00000070: 13ea 6c3f 2792 5c3f a6f1 7d3f 8d30 823f

conv1_bn.bias f4 [32]
-0.114093214 -0.1106117 -0.14772925 -0.01592949 -0.15889126 -0.007100002 -0.053616714 -0.010716596
0.039119266 -0.18344404 -0.1885965 0.003982606 -0.007951526 -0.2066963 -0.116238154 0.020000001
-0.14582142 -0.014554181 0.024359865 -0.21513234 -0.13775688 0.06783295 -0.0064847567 -0.052234136
-0.199022 -0.19663858 -0.08847517 0.078792036 -0.2236917 -0.11190503 -0.04199816 0.07496395
00000000: b4a9 e9bd 6388 e2bd 5646 17be 907e 82bc
00000010: 64b4 22be 22a7 e8bb 339d 5bbd a994 2fbc
00000020: 863b 203d c1d8 3bbe 711f 41be 8580 823b
00000030: 1e47 02bc 32a8 53be 450e eebd 0bd7 a33c
00000040: 3652 15be a974 6ebc 578e c73c a74b 5cbe
00000050: 2410 0dbe 00ec 8a3d 157e d4bb 76f3 55bd
00000060: 6ccc 4bbe a05b 49be 7832 b5bd b85d a13d
00000070: 700f 65be 772e e5bd 4306 2cbd b386 993d

conv1_bn.running_mean f4 [32]
-2.8531432 45.74983 -13.347988 -19.011707 6.647832 0.8503692 0.05890646 -28.149473
0.4447349 -0.31313685 6.6123323 1.8675758 0.48210937 16.809614 0.04785083 -0.61132014
-0.48635632 -2.5024214 0.76509833 -0.49664336 -48.514328 -0.049522366 22.399067 14.536343
3.9626822 -0.6149842 4.5719 -6.9058137 0.32291812 3.5954447 -1.7787832 -1.5875951
00000000: e699 36c0 d3ff 3642 5c91 55c1 fa17 98c1
00000010: 0abb d440 ccb1 593f e647 713d 1f32 e1c1
00000020: 4bb4 e33e 7953 a0be 3a98 d340 b90c ef3f
00000030: 0ad7 f63e 177a 8641 3bff 433d 7a7f 1cbf
00000040: b203 f9be ac27 20c0 7cdd 433f 0a48 febe
00000050: ac0e 42c2 f7d7 4abd 4a31 b341 dc94 6841
00000060: 969c 7d40 9b6f 1dbf 014d 9240 6dfc dcc0
00000070: 8655 a53e c41b 6640 2baf e3bf 5136 cbbf

conv1_bn.running_var f4 [32]
12.561156 861.413 112.61564 158.77411 50.43433 18.238958 86.04859 318.69162
82.457115 37.47058 69.64766 17.303427 46.07192 146.15154 38.16778 50.129627
23.758146 33.95341 40.97694 25.847054 947.8772 70.88174 212.1929 101.22441
17.66324 40.35269 20.598732 70.067986 33.132954 52.563248 62.94582 22.224203
00000000: 7ffa 4841 6f5a 5744 353b e142 2cc6 1e43
00000010: c1bc 4942 63e9 9141 e118 ac42 8758 9f43
00000020: 0bea a442 e0e1 1542 9a4b 8b42 6b6d 8a41
00000030: a549 3842 cb26 1243 cfab 1842 bd84 4842
00000040: af10 be41 4bd0 0742 63e8 2342 c4c6 ce41
00000050: 24f8 6c44 73c3 8d42 6231 5443 e672 ca42
00000060: 514e 8d41 2869 2142 34ca a441 cf22 8c42
00000070: 2588 0442 c440 5242 85c8 7b42 2bcb b141

conv2.weight f4 [64, 32, 4, 4]
0.028936842 0.03486269 0.05336643 -0.03208591 0.007162089 0.11189124 0.057158455 0.03545476
-0.057663023 0.024372771 0.022576002 -0.062209744 -0.015514157 0.023612844 -0.02429537 -0.039147444
0.037543844 0.017029552 -0.005996577 0.0070740064 -0.026366308 0.015761256 0.041329794 -0.011709614
-0.041419424 0.015208628 -0.030577835 0.009594337 -0.0021744212 -0.007872816 -0.042678908 -0.014166444
-0.11936103 0.010579612 0.049073353 0.09905906 -0.11997842 -0.07257099 -0.015074156 -0.009355068
-0.14515686 -0.07408236 0.00060140557 -0.06070422 -0.22457758 -0.11422992 0.006507534 -0.0011395152
-0.02859431 0.04704094 0.04477139 -0.0023452563 -0.16142744 0.027327418 0.0048299613 0.0018214979
-0.1564873 -0.0001401881 0.040177252 -0.053295545 -0.13857758 0.06266459 0.03742095 -0.00077016564
0.041821387 0.04016521 -0.005488829 0.032837298 0.016910335 -0.02186753 -0.026949583 0.016088933
-0.041799203 0.01956554 -0.0039019093 -0.020744368 -0.00962562 0.010711188 -0.061703265 -0.025042308
-0.0038469716 0.03716141 0.03260859 0.076506056 0.0025250274 0.05968353 0.0069170315 0.04974198
-0.037520103 0.05282897 0.010089242 -0.048576947 -0.026129082 -0.0013298972 -0.11888662 -0.081700854
0.019944191 0.050754517 0.14256515 0.13995604 -0.11272245 0.051350072 0.0053432006 -0.02825058
-0.032559913 0.027844746 0.045102462 0.042194296 -0.067774124 -0.008287327 0.03996233 -0.06834439
-0.034649257 0.0897417 0.087950416 0.06337908 -0.054052256 0.092732854 0.036445 0.027082052
-0.15013339 0.009716149 0.074847735 0.02375828 -0.1883517 -0.0047700815 0.012815618 -0.016453018
0.03484314 0.03414845 0.122453816 0.050773997 0.087587185 0.12678662 0.10035934 0.0819443
-0.052780308 0.00793531 0.08502826 0.010622279 -0.067060426 -0.007629743 0.07356963 0.07465435
0.0047560763 -0.016511973 -0.03700617 -0.095614225 0.055381753 0.03658558 0.088281624 -0.023398407
-0.09187697 -0.08228228 -0.058713056 -0.0974742 -0.09865906 -0.06802095 0.032861814 -0.09122688
-0.14202735 -0.120074406 -0.07160456 -0.024004016 -0.12191471 -0.09537525 -0.06449898 -0.10576121
-0.10664223 -0.06095606 -0.17692263 -0.08785827 -0.112150244 -0.025873883 -0.08483756 -0.07909281
0.017137205 0.028700218 -0.011873207 -0.018270766 0.009077832 0.057774264 0.06586495 0.025508357
0.0248227 0.08933026 0.03919914 0.014453855 -0.104131006 -0.0148304 -0.082147524 -0.012228002
0.003980889 0.041453935 0.15029228 0.17151363 0.05449322 0.07241144 0.032573927 0.1437165
0.05159447 0.075896 0.03891488 0.0075960592 0.043519035 0.034679897 0.04729876 0.085338846
0.024330715 -0.014418585 -0.02529332 -0.029150235 0.057744596 -0.031636707 -0.017330933 0.04904829
-0.00940016 -0.0242159 -0.018875098 -0.014855158 0.0072871284 -0.041710284 -0.029616326 0.037656642
-0.025793154 -0.0013089079 -0.051428284 0.021742446 0.01071531 0.057489492 0.055428635 0.04036584
-0.08449543 -0.06072738 -0.11390761 -0.04243271 -0.047668085 -0.12587768 -0.056928985 -0.07300796
-0.027427735 -0.05052072 0.04885189 0.12062263 0.00974969 -0.013429079 0.05231766 0.06110797
0.044757612 0.03014872 -0.035243254 0.0865383 0.01798672 -0.024248082 -0.032708243 0.047063474
00000000: f50c ed3c 2ecc 0e3d c296 5a3d 846c 03bd
00000010: f5af ea3b 3c27 e53d fc1e 6a3d 0339 113d
00000020: 1030 6cbd 68a9 c73c 4ff1 b83c a5cf 7ebd
00000030: 172f 7ebc b96f c13c 1507 c7bc 1259 20bd
00000040: 93c7 193d 8f81 8b3c ef7e c4bb 11cd e73b
00000050: 28fe d7bc c01d 813c 6e49 293d aed9 3fbc
00000060: 6aa7 29bd 9c2d 793c 5e7e fabc 9131 1d3c
00000070: bc80 0ebb fcfc 00bc 14d0 2ebd 5f1a 68bc
00000080: 8e73 f4bd 1c56 2d3c 2401 493d 7adf ca3d
00000090: 3fb7 f5bd 19a0 94bd 98f9 76bc 0046 19bc
000000a0: 00a4 14be 7eb8 97bd a5a7 1d3a fda4 78bd
000000b0: aaf7 65be 60f1 e9bd 273d d53b c95b 95ba
000000c0: 9d3e eabc 00ae 403d 3462 373d dfb2 19bb
000000d0: 3c4d 25be c0dd df3c a744 9e3b 54bf ee3a
000000e0: 353e 20be 75ff 12b9 e790 243d 6e4c 5abd
000000f0: 48e7 0dbe 4b56 803d b646 193d f1e4 49ba
00000100: e74c 2b3d 4684 243d a3db b3bb 6780 063d
00000110: 8b87 8a3c 8923 b3bc 5fc5 dcbc f0cc 833c
00000120: a435 2bbd e947 a03c 2db7 7fbb 18f0 a9bc
00000130: c7b4 1dbc fb7d 2f3c 90bc 7cbd 8725 cdbc
00000140: 791d 7cbb 9036 183d 9690 053d 35af 9c3d
00000150: ee7a 253b b876 743d 44a8 e23b 3fbe 4b3d
00000160: aeae 19bd 3163 583d 594d 253c 9ff8 46bd
00000170: a80c d6bc f24f aeba d47a f3bd c752 a7bd
00000180: 0062 a33c f8e3 4f3d 99fc 113e a350 0f3e
00000190: 07db e6bd 7454 523d 0416 af3b c36d e7bc
000001a0: 8b5d 05bd aa1a e43c 5cbd 383d edd3 2c3d
000001b0: 29cd 8abd 92c7 07bc 8aaf 233d 25f8 8bbd
000001c0: 61ec 0dbd 7fca b73d 591f b43d e4cc 813d
000001d0: e665 5dbd b9ea bd3d 5a47 153d 2edb dd3c
000001e0: 91bc 19be 7c30 1f3c c549 993d b9a0 c23c
000001f0: 45df 40be 584e 9cbb 99f8 513c 7bc8 86bc
00000200: aeb7 0e3d 3fdf 0b3d 11c9 fa3d 65f8 4f3d
00000210: e960 b33d 5ad4 013e 3389 cd3d 6ad2 a73d
00000220: 2a30 58bd 1a03 023c 4c23 ae3d 1109 2e3c
00000230: fa56 89bd ec02 fabb adab 963d 61e4 983d
00000240: dcd8 9b3b 1e44 87bc c893 17bd 64d1 c3bd
00000250: fad7 623d c3da 153d ffcc b43d 04ae bfbc
00000260: fe29 bcbd 9d83 a8bd 1a7d 70bd 8ea0 c7bd
00000270: c30d cabd 914e 8bbd 1c9a 063d 29d5 babd
00000280: 9e6f 11be 92e9 f5bd 69a5 92bd 12a4 c4bc
00000290: 6bae f9bd 1954 c3bd 0b18 84bd 5599 d8bd
000002a0: 3e67 dabd 10ad 79bd 352b 35be 09ef b3bd
000002b0: 07af e5bd 77f5 d3bc 51bf adbd 69fb a1bd
000002c0: 5363 8c3c b81c eb3c d787 42bc 93ac 95bc
000002d0: 30bb 143c b5a4 6c3d 34e4 863d e7f6 d03c
000002e0: fa58 cb3c c9f2 b63d 478f 203d ddcf 6c3c
000002f0: a342 d5bd 35fb 72bc f63c a8bd f557 48bc
00000300: 1e72 823b 9acb 293d 38e6 193e 45a1 2f3e
00000310: 4834 5f3d 734c 943d 3d6c 053d 6b2a 133e
00000320: b954 533d 5d6f 9b3d 3665 1f3d 5de8 f83b
00000330: 0441 323d 820c 0e3d 58bc 413d 22c6 ae3d
00000340: 3551 c73c ee3b 6cbc f033 cfbc 79cc eebc
00000350: 9985 6c3d 7e95 01bd 9af9 8dbc dce6 483d
00000360: 2103 1abc 6c60 c6bc f39f 9abc 0c63 73bc
00000370: ddc8 ee3b 67d8 2abd f09d f2bc da3d 1a3d
00000380: 2a4c d3bc a98f abba 77a6 52bd 371d b23c
00000390: 458f 2f3c 1a7a 6b3d 2309 633d a756 253d
000003a0: f10b adbd 46bd 78bd 6548 e9bd eccd 2dbd
000003b0: 9c3f 43bd 14e6 00be 5e2e 69bd 3385 95bd
000003c0: 21b0 e0bc d1ee 4ebd eb18 483d ff08 f73d
000003d0: 2abd 1f3c a405 5cbc 0b4b 563d 5a4c 7a3d
000003e0: c253 373d 73fa f63c 3b5b 10bd fe3a b13d
000003f0: e358 933c eaa3 c6bc 14f9 05bd a1c5 403d

conv2.bias f4 [64]
-0.05632238 -0.06401354 -0.04501079 0.0050607943 0.028881948 -0.040789794 -0.1160661 -0.029583775
-0.011590264 -0.051023066 -0.04930149 -0.09981504 0.009376724 -0.0793295 -0.018454487 -0.015453045
-0.05212061 -0.036773115 -0.08350275 0.016714973 -0.07460418 -0.02981827 -0.039434496 -0.057820506
-0.02835286 -0.015510669 -0.00029668713 -0.03891122 -0.15968227 0.0119690215 -0.0066129807 0.07357632
-0.08880084 0.00091590657 0.008159584 0.018335704 -0.10522287 -0.020124435 -0.04014012 0.021658942
0.13675201 0.019629901 0.020811675 -0.058549915 0.018230328 -0.021237649 0.08748065 0.024973612
-0.07731103 -0.03971391 -0.004556817 0.002382306 -0.07573702 0.022106526 -0.050375346 -0.027336778
0.038829617 0.056805525 -0.050300322 -0.049989574 0.021223946 0.030166311 -0.0052026534 0.093989104
00000000: 4cb2 66bd 8819 83bd 3c5d 38bd 05d5 a53b
00000010: d699 ec3c 3313 27bd 10b4 edbd ac59 f2bc
00000020: 17e5 3dbc 90fd 50bd 5cf0 49bd d46b ccbd
00000030: d5a0 193c 8177 a2bd dd2d 97bc c52e 7dbc
00000040: 6c7c 55bd 689f 16bd 7d03 abbd d7ed 883c
00000050: 14ca 98bd 7245 f4bc 1186 21bd 32d5 6cbd
00000060: 4244 e8bc 7620 7ebc ac8c 9bb9 5f61 1fbd
00000070: c083 23be b719 443c b4b1 d8bb 2faf 963d
00000080: 37dd b5bd 7319 703a c7af 053c c234 963c
00000090: 177f d7bd 00dc a4bc f769 24bd 186e b13c
000000a0: b808 0c3e e3ce a03c 3f7d aa3c 09d2 6fbd
000000b0: c557 953c 94fa adbc 0e29 b33d 7695 cc3c
000000c0: 3f55 9ebd 0eab 22bd 5a51 95bb 7620 1c3b
000000d0: 031c 9bbd bf18 b53c 6156 4ebd 61f1 dfbc
000000e0: ce0b 1f3d e9ac 683d b607 4ebd dec1 4cbd
000000f0: d7dd ad3c 571f f73c 057b aabb 5c7d c03d

conv2_bn.weight f4 [64]
0.72828585 0.81932807 0.9689467 0.97519207 0.88578296 0.9565824 0.9978596 0.75920004
0.9334982 0.8677344 0.9347828 0.8648812 0.8719529 0.87668705 0.8893655 1.0392753
0.92278266 0.8004223 0.88067573 0.8460964 0.9611272 0.72476196 0.8917267 0.7941077
0.9230835 0.78193766 0.91964155 0.9900759 1.01669 1.0257305 1.0414839 0.98921317
0.99107903 0.81951576 0.9619864 0.9961116 0.98643494 0.8677407 1.0540645 0.7408247
0.9060193 0.97391415 1.0267612 0.810281 0.965267 0.74215746 1.0631285 1.1123153
1.0142715 0.838542 0.8030279 0.91796327 0.80144185 1.0442822 0.73460037 1.0783882
0.78487986 0.82252055 0.8290154 0.9284548 0.9081003 0.94184387 0.7577293 0.9569641
00000000: f170 3a3f 7cbf 513f e40c 783f 30a6 793f
00000010: acc2 623f 96e2 743f ba73 7f3f ef5a 423f
00000020: bdf9 6e3f d723 5e3f ed4d 6f3f db68 5d3f
00000030: 4e38 5f3f 906e 603f 75ad 633f f906 853f
00000040: 7c3b 6c3f 7ae8 4c3f f773 613f c699 583f
00000050: 6f0c 763f 008a 393f 3348 643f a44a 4b3f
00000060: 334f 6c3f 112d 483f a16d 6b3f 9d75 7d3f
00000070: e622 823f 234b 833f 584f 853f 133d 7d3f
00000080: 5bb7 7d3f c9cb 513f be44 763f 2b01 7f3f
00000090: 0087 7c3f 4124 5e3f 96eb 863f b0a6 3d3f
000000a0: e1f0 673f 7052 793f e96c 833f 936e 4f3f
000000b0: bd1b 773f 08fe 3d3f 9814 883f 5960 8e3f
000000c0: a6d3 813f b0aa 563f 3d93 4d3f a4ff 6a3f
000000d0: 4b2b 4d3f 0aab 853f c50e 3c3f a008 8a3f
000000e0: e3ed 483f b590 523f 5a3a 543f 37af 6d3f
000000f0: 4379 683f ae1c 713f 8cfa 413f 99fb 743f

conv2_bn.bias f4 [64]
-0.20204426 -0.093005076 -0.20603187 -0.29090434 -0.3618525 -0.2405907 -0.40617523 -0.15050836
-0.08385164 -0.25758392 -0.024878204 -0.14217432 -0.091348864 -0.10640882 -0.122967385 -0.014451605
-0.11875534 -0.25315225 -0.08675785 -0.21031135 -0.5306737 -0.20197672 -0.1828914 -0.14822593
-0.5321022 -0.16132541 -0.07080618 -0.17987749 -0.29375336 -0.12645918 -0.2790346 0.05135983
-0.4529649 -0.16608892 -0.50479484 -0.23691559 -0.2812861 -0.10341011 -0.12991212 -0.2226864
-0.054041855 -0.26575366 -0.029320823 -0.10277019 -0.28735784 -0.16263822 -0.065426365 -0.36172366
-0.25852442 -0.16690645 -0.18905793 -0.12950136 -0.12509917 -0.21571836 -0.17061011 -0.13514695
-0.14265935 -0.1542079 -0.14505424 -0.11229834 -0.208068 -0.14254874 -0.15797585 0.014352926
00000000: b1e4 4ebe 7279 bebd 05fa 52be 6af1 94be
00000010: bb44 b9be 695d 76be 33f6 cfbe dd1e 1abe
00000020: 69ba abbd 0ae2 83be 60cd cbbc 2596 11be
00000030: 1d15 bbbd deec d9bd 53d6 fbbd 6dc6 6cbc
00000040: 0036 f3bd 2c9d 81be 1aae b1bd dc5b 57be
00000050: 3bda 07bf fcd2 4ebe e247 3bbe 8ac8 17be
00000060: da37 08bf 7d32 25be d502 91bd ce31 38be
00000070: d766 96be 847e 01be a0dd 8ebe af5e 523d
00000080: 04eb e7be 3713 2abe 3c3a 01bf 009a 72be
00000090: bb04 90be aec8 d3bd af07 05be e707 64be
000000a0: fe5a 5dbd dd10 88be 3932 f0bc 2d79 d2bd
000000b0: 9120 93be a28a 26be 42fe 85bd d833 b9be
000000c0: 505d 84be 86e9 2abe 6798 41be 019c 04be
000000d0: ff19 00be 46e5 5cbe 6bb4 2ebe f663 0abe
000000e0: 4b15 12be ade8 1dbe 1989 14be acfc e5bd
000000f0: c70f 55be 4cf8 11be 6cc4 21be 8928 6b3c

conv2_bn.running_mean f4 [64]
-0.7143922 -2.0008593 -3.4480536 -1.6320716 -1.941216 -1.1131872 4.8321757 -1.4522051
-0.45980838 -0.42444798 -2.2309792 -0.945738 -1.7179477 -2.5355809 2.1221912 1.3288742
-2.1836383 -1.0434344 -2.7789211 -0.7696743 -3.2982943 -1.1763905 0.6957778 -2.17609
-2.7244864 -1.1121169 -3.0911093 -0.21242759 4.0366898 -2.6338449 -0.57780606 0.99128366
-2.5391517 -0.93239826 -2.393954 -2.599932 -2.2242036 1.783647 -3.705779 -0.7660875
-1.8269514 4.6787524 2.4325728 -2.591471 -1.7819295 -1.1790816 -1.0015506 -1.7379943
-1.9203261 0.31766737 -1.1669612 -1.6911854 -1.9947342 -0.615982 -0.9675552 -0.109771445
-1.6053137 -0.8468034 -1.2195128 -2.0393605 -0.6091184 -1.1413842 -1.2153938 1.9317917
00000000: 68e2 36bf 140e 00c0 e9ac 5cc0 b9e7 d0bf
00000010: c479 f8bf eb7c 8ebf 2fa1 9a40 dbe1 b9bf
00000020: 016c ebbe 3f51 d9be 5dc8 0ec0 e31b 72bf
00000030: b6e5 dbbf f546 22c0 fbd1 0740 8d18 aa3f
00000040: bbc0 0bc0 428f 85bf d8d9 31c0 6009 45bf
00000050: 4117 53c0 f793 96bf 7e1e 323f 0f45 0bc0
00000060: fc5d 2ec0 d959 8ebf bcd4 45c0 9e86 59be
00000070: 902c 8140 ea90 28c0 19eb 13bf c4c4 7d3f
00000080: 7681 22c0 a7b1 6ebf 8b36 19c0 4965 26c0
00000090: 5a59 0ec0 8b4e e43f 7c2b 6dc0 4f1e 44bf
000000a0: 8bd9 e9bf 57b8 9540 46af 1b40 a9da 25c0
000000b0: 4416 e4bf 25ec 96bf cf32 80bf 9976 debf
000000c0: 3fcd f5bf 4ca5 a23e fc5e 95bf c378 d8bf
000000d0: 7353 ffbf ffb0 1dbf b3b1 77bf dacf e0bd
000000e0: eb7a cdbf 1cc8 58bf ff18 9cbf e284 02c0
000000f0: 2fef 1bbf e118 92bf 0692 9bbf f344 f73f

conv2_bn.running_var f4 [64]
1.7124527 15.577293 11.339173 10.159445 8.911101 3.1743844 8.046524 12.589943
5.5190597 4.617636 8.54191 4.2595344 7.1928573 9.590347 12.0524025 7.7953706
7.859297 4.324899 7.9973507 1.6538607 18.063946 10.949772 5.81227 9.750297
12.449775 12.1263 9.973981 4.24484 6.498763 10.751623 4.07399 2.6286874
11.198686 3.6594133 10.75196 7.344943 11.799232 12.684374 14.570801 2.7598796
5.5361776 7.566268 7.404885 13.24337 10.998464 6.499476 16.451628 8.309466
10.070944 5.227926 5.3428106 7.736586 7.7692285 2.0355048 7.1183558 7.022877
7.469467 12.245123 3.7827497 5.6931767 5.955732 8.413535 4.645783 3.802926
00000000: a631 db3f 983c 7941 416d 3541 168d 2241
00000010: df93 0e41 1d29 4b40 90be 0041 6870 4941
00000020: 239c b040 adc3 9340 aaab 0841 1b4e 8840
00000030: e32b e640 1072 1941 a4d6 4041 ad73 f940
00000040: 5c7f fb40 9365 8a40 4cea ff40 b5b1 d33f
00000050: f682 9041 4432 2f41 1efe b940 3701 1c41
00000060: 4732 4741 5305 4241 6d95 1f41 bbd5 8740
00000070: def5 cf40 a606 2c41 205e 8240 6a3c 2840
00000080: d12d 3341 d433 6a40 0708 2c41 c609 eb40
00000090: a7c9 3c41 32f3 4a41 0022 6941 dea1 3040
000000a0: 5e28 b140 de1e f240 d1f4 ec40 d8e4 5341
000000b0: b5f9 2f41 b5fb cf40 ef9c 8341 93f3 0441
000000c0: 9622 2141 2b4b a740 4ef8 aa40 1d92 f740
000000d0: 859d f840 b645 0240 92c9 e340 69bb e040
000000e0: e005 ef40 06ec 4341 9218 7240 812e b640
000000f0: 5b95 be40 d79d 0641 41aa 9440 2463 7340

t_conv1.weight f4 [64, 32, 4, 4]
-0.031917438 -0.03751452 0.0025172431 0.009630132 0.037893467 -0.029251052 0.04673087 -0.021081058
0.0058071963 -0.029710272 -0.03678092 -0.030776002 0.015104084 0.041211437 0.07411957 -0.009975203
0.041317046 -0.052802555 -0.04592333 -0.008352687 0.012045769 -0.057507418 -0.09208877 0.011296643
-0.033276107 -0.023085022 -0.03333972 -0.014989372 0.052071393 0.031318 -0.011249991 -0.010908038
-0.08225247 -0.059847966 -0.08157892 -0.043717917 0.04569311 0.02575195 0.096317485 0.03171828
-0.0066571366 -0.06901932 -0.03533845 -0.017378554 0.0037112553 -0.044792693 0.035943598 0.009212414
0.043895483 0.025115484 -0.00033318624 0.0067607313 -0.026672672 -0.015163986 -0.124815874 0.020945808
0.057539694 0.004794545 -0.05281584 -0.011868842 0.006648248 0.07953957 -0.15021226 0.015479898
-0.05406615 -0.060917813 -0.0932411 -0.059507813 -0.11600377 -0.11303776 -0.12021341 -0.17461528
-0.03189588 -5.870023e-05 -0.042628508 -0.115634665 -0.039234653 -0.04874457 -0.021821972 -0.17236838
-0.03985498 0.04038384 -0.0390528 -0.08399727 0.002589041 -0.004323727 -0.10354118 -0.06966521
-0.039313283 0.04280265 -0.047558468 -0.044578906 0.0063474583 -0.014434854 -0.022224667 -0.006145107
-0.060832363 -0.011882407 -0.075948775 -0.01807372 -0.053671807 0.010280166 0.019475944 0.0810028
-0.08111462 -0.018741665 -0.088041484 0.044587284 -0.0858532 -0.040943388 -0.035305735 0.032010622
0.03480722 -0.070138745 -0.054833837 -0.07493155 0.008189743 -0.055844277 -0.028017288 -0.10877886
0.009937862 -0.04289415 0.002347782 -0.12249284 0.100247554 0.046190448 -0.02152752 -0.037760537
-0.033613116 0.008166743 -0.046447948 -0.046075575 0.0075431517 -0.019747088 -0.016859265 -0.040812355
-0.030657826 -0.035605717 0.02675749 -0.0040243906 0.031293817 0.026299376 -0.043801647 -0.043762084
0.011622402 0.012096022 -0.07874513 -0.03695861 0.0137154525 0.07783549 0.03588621 0.008542761
0.029063309 0.031488765 -0.012148148 -0.044599276 0.047503967 0.06129052 0.05111858 0.063665666
0.026467176 0.014841109 -0.07412873 -0.01948649 0.045596637 -0.016378805 -0.054826077 0.016435878
0.010765107 -0.0350714 -0.01783482 0.02522127 0.035956826 -0.0045551118 -0.01549759 0.009080281
-0.027590696 -0.021896008 -0.043268844 0.006224281 -0.021045998 -0.033820286 -0.014625329 -0.006224652
-0.02089521 -0.0217903 -0.087289765 -0.0427933 0.013840053 0.07046049 0.014939293 -0.012758035
0.003765294 -0.06767454 -0.023074754 0.024810916 -0.040692423 -0.0628207 -0.044410907 -0.051307295
-0.050208356 -0.11372398 -0.036498297 0.00971839 0.02647328 -0.052829247 -0.01789987 -0.01921011
0.016887316 -0.05761204 -0.0034747717 -0.032517187 -0.09557165 -0.042725172 0.019514145 -0.007833589
-0.0334075 -0.091679506 -0.006298181 -0.04015265 -0.063993715 -0.115071855 -0.055892527 0.007418405
0.05305501 0.041001894 -0.015756993 0.0079177795 -0.034028813 0.020972 -0.049140356 -0.037530586
-0.023064222 0.04929112 -0.013344248 0.015453029 0.0052207867 0.020817274 -0.07521834 -0.029648354
-0.0074979006 -0.035355784 -0.049274363 -0.031234656 -0.03128239 -0.052839648 0.007400882 -0.012712197
0.000211578 -0.0914807 0.002937168 -0.043204386 -0.027641626 -0.010843683 -0.013398755 0.0020041
00000000: dcbb 02bd d3a8 19bd 55f8 243b b3c7 1d3c
00000010: 2e36 1b3d e79f efbc de68 3f3d 2fb2 acbc
00000020: 4b4a be3b f562 f3bc 97a7 16bd f41d fcbc
00000030: 1f77 773c 53cd 283d 00cc 973d 096f 23bc
00000040: 103c 293d 7e47 58bd 1a1a 3cbd b5d9 08bc
00000050: 9e5b 453c e68c 6bbd 0999 bcbd 8e15 393c
00000060: 874c 08bd cd1c bdbc 3b8f 08bd fc95 75bc
00000070: d048 553d 4e47 003d e251 38bc a1b7 32bc
00000080: fc73 a8bd 2423 75bd d912 a7bd 8f11 33bd
00000090: b328 3b3d c1f5 d23c 1a42 c53d 07eb 013d
000000a0: 1c24 dabb 005a 8dbd 0dbf 10bd 785d 8ebc
000000b0: 8838 733b 8b78 37bd 9839 133d aaef 163c
000000c0: c0cb 333d fdbe cd3c 80af aeb9 2089 dd3b
000000d0: a680 dabc 5e72 78bc 779f ffbd 8b96 ab3c
000000e0: beae 6b3d 8f1b 9d3b 6c55 58bd 8875 42bc
000000f0: 8cd9 d93b a4e5 a23d 3ed1 19be 669f 7d3c
00000100: 7874 5dbd f584 79bd 31f5 bebd 77be 73bd
00000110: 6293 edbd 5780 e7bd 7332 f6bd 59ce 32be
00000120: 41a5 02bd e434 76b8 3b9b 2ebd ded1 ecbd
00000130: 84b4 20bd 63a8 47bd fec3 b2bc 5681 30be
00000140: fa3e 23bd 8769 253d d4f5 1fbd c306 acbd
00000150: e6ac 293b 0dae 8dbb 660d d4bd a2ac 8ebd
00000160: f706 21bd d551 2f3d abcc 42bd 5f98 36bd
00000170: 57fe cf3b 2a80 6cbc 8110 b6bc e55c c9bb
00000180: 5b2b 79bd 6dae 42bc 088b 9bbd 570f 94bc
00000190: f8d6 5bbd 246e 283c 048c 9f3c cce4 a53d
000001a0: 6c1f a6bd 1f88 99bc 184f b4bd 28a1 363d
000001b0: cdd3 afbd 41b4 27bd bf9c 10bd 921d 033d
000001c0: 0492 0e3d e7a4 8fbd 7299 60bd b675 99bd
000001d0: 462e 063c f8bc 64bd 8384 e5bc 73c7 debd
000001e0: 6ad2 223c c7b1 2fbd 3fdd 193b 87dd fabd
000001f0: 974e cd3d 3232 3d3d 7b5a b0bc cbaa 1abd
00000200: e8ad 09bd cecd 053c 3440 3ebd beb9 3cbd
00000210: 8b2c f73b a5c4 a1bc 711c 8abc db2a 27bd
00000220: 1f26 fbbc 4dd7 11bd 8632 db3c 09df 83bb
00000230: f22d 003d ca71 d73c 5b69 33bd df3f 33bd
00000240: e36b 3e3c 652e 463c 2045 a1bd e961 17bd
00000250: c7b6 603c 3768 9f3d 6bfd 123d f0f6 0b3c
00000260: 2d16 ee3c 5dfa 003d 0709 47bc bbad 36bd
00000270: 8593 423d c50b 7b3d b761 513d 2563 823d
00000280: b1d1 d83c 1f28 733c ced0 97bd 22a2 9fbc
00000290: 8ac3 3a3d d82c 86bc 4f91 60bd 89a4 863c
000002a0: 2260 303c 07a7 0fbd 541a 92bc d69c ce3c
000002b0: 7747 133d 0c43 95bb 9be9 7dbc 75c5 143c
000002c0: e205 e2bc 425f b3bc ac3a 31bd 0ef5 cb3b
000002d0: a868 acbc 2487 0abd 139f 6fbc 2af8 cbbb
000002e0: 6e2c abbc 9281 b2bc fac4 b2bd 0748 2fbd
000002f0: 64c1 623c 974d 903d f0c3 743c 1407 51bc
00000300: 27c3 763b f398 8abd 4407 bdbc 4340 cb3c
00000310: 19ad 26bd 24a8 80bd 36e8 35bd 9927 52bd
00000320: 47a7 4dbd 1ee8 e8bd 3d7f 15bd e239 1f3c
00000330: 7ede d83c 7b63 58bd c0a2 92bc 855e 9dbc
00000340: 4557 8a3c 9afa 6bbd ffb8 63bb be30 05bd
00000350: 12bb c3bd 9700 2fbd 21dc 9f3c 7458 00bc
00000360: 4dd6 08bd 77c2 bbbd f960 cebb 1b77 24bd
00000370: 230f 83bd cbaa ebbd 90ef 64bd 1716 f33b
00000380: 3650 593d 9af1 273d cf14 81bc 93b9 013c
00000390: cc61 0bbd 79cd ab3c 6647 49bd acb9 19bd
000003a0: 2ef1 bcbc 7ce5 493d d5a1 5abc b42e 7d3c
000003b0: 2213 ab3b fd88 aa3c 130c 9abd 1be1 f2bc
000003c0: f3b0 f5bb 3ad1 10bd ead3 49bd d2df ffbc
000003d0: f721 00bd 636e 58bd 1983 f23b d246 50bc
000003e0: 09db 5d39 3c5a bbbd 817d 403b 15f7 30bd
000003f0: b170 e2bc b4a9 31bc 7486 5bbc 3857 033b

t_conv1.bias f4 [32]
0.0005339597 0.07554614 -0.039727617 -0.03708201 -0.04951379 0.067265585 0.0057743653 0.021517873
0.01537867 -0.004783797 0.009286431 0.017800188 -0.017525006 0.077659525 -0.01586591 0.0074751517
0.03224921 -0.00291081 0.010393126 0.0747551 0.16659856 0.0077285226 0.06723607 0.030411616
-0.05948705 0.07524657 -0.028561594 -0.05029844 0.023651782 0.044387724 -0.018515147 0.036876917
00000000: 6ef9 0b3a efb7 9a3d 6db9 22bd 4ee3 17bd
00000010: f9ce 4abd 8ac2 893d e336 bd3b 4046 b03c
00000020: d1f6 7b3c 66c1 9cbb 1d26 183c b3d1 913c
00000030: 9a90 8fbc f50b 9f3d 3af9 81bc 1ef2 f43b
00000040: bf17 043d 4ac3 3ebb ee47 2a3c 3419 993d
00000050: d098 2a3e 8c3f fd3b 11b3 893d c821 f93c
00000060: b1a8 73bd e01a 9a3d 01fa e9bc bd05 4ebd
00000070: 62c1 c13c e7cf 353d 14ad 97bc 400c 173d

t_conv1_bn.weight f4 [32]
1.1373056 1.1460577 1.1717838 1.0879792 1.254842 1.136416 1.1718792 1.1406696
1.13474 1.1368731 1.1550316 1.1522624 1.1945589 1.2259986 1.1987648 1.1254977
1.4131076 1.1240406 1.1594592 1.1606386 1.1574802 1.1419764 1.1509677 1.15838
1.1340626 1.1632385 1.2259879 1.1509416 1.1706605 1.1700783 1.129998 1.1375601
00000000: 3b93 913f 05b2 923f 03fd 953f e742 8b3f
00000010: aa9e a03f 1476 913f 2300 963f 7601 923f
00000020: 293f 913f 0f85 913f 13d8 933f 567d 933f
00000030: 4ee7 983f 86ed 9c3f 2071 993f 4f10 903f
00000040: b6e0 b43f 90e0 8f3f 2969 943f ce8f 943f
00000050: 5028 943f 482c 923f e952 933f cc45 943f
00000060: f728 913f 00e5 943f 2ced 9c3f 0e52 933f
00000070: 34d8 953f 20c5 953f c6a3 903f 929b 913f

t_conv1_bn.bias f4 [32]
0.10789983 0.15366954 0.14228831 -0.00416066 0.116796024 0.10560394 0.14999475 0.07883259
0.11697263 0.106790304 0.09051822 0.13244618 0.13849916 0.16208613 0.031898845 0.10626421
-0.08168907 0.09872173 0.11578275 0.14445136 0.08779092 0.097376496 0.123865955 0.07633054
0.09730324 0.0984967 0.050412353 0.04067806 0.122046225 0.067049704 0.094660826 0.118486725
00000000: 96fa dc3d 8c5b 1d3e 07b4 113e 2556 88bb
00000010: c132 ef3d e146 d83d 3998 193e fb72 a13d
00000020: 598f ef3d e0b4 da3d 9e61 b93d f99f 073e
00000030: b9d2 0d3e e8f9 253e 5da8 023d 0da1 d93d
00000040: 994c a7bd 9e2e ca3d 821f ed3d 0feb 133e
00000050: bacb b33d 546d c73d 6fad fd3d 3053 9c3d
00000060: ec46 c73d a3b8 c93d 2f7d 4e3d 0a9e 263d
00000070: 5ff3 f93d 5b51 893d 89dd c13d 2ba9 f23d

t_conv1_bn.running_mean f4 [32]
-1.0489614 -1.4277378 -1.092077 -1.2385362 -0.41994542 -1.0902224 -1.4476142 -0.9210965
-0.8101952 -1.3600789 -0.8650376 -1.1739876 -0.96135455 -1.4274848 -0.03505886 -1.3933475
-0.06296099 -1.3483443 -1.5325168 -1.0022304 0.35089964 -1.1569619 -1.0753608 0.04898223
-1.3059376 -0.8277059 -1.0017476 0.08722418 -1.2743509 0.114628024 -1.308583 -1.1226244
00000000: 5e44 86bf 1dc0 b6bf 2ec9 8bbf 5b88 9ebf
00000010: 1603 d7be 688c 8bbf 6c4b b9bf fbcc 6bbf
00000020: f468 4fbf 1117 aebf 1b73 5dbf 3a45 96bf
00000030: 551b 76bf d2b7 b6bf e199 0fbd 3659 b2bf
00000040: b1f1 80bd 8c96 acbf 8329 c4bf 1649 80bf
00000050: 1ea9 b33e 5417 94bf 6ca5 89bf 97a1 483d
00000060: f728 a7bf 89e4 53bf 4439 80bf 97a2 b23d
00000070: ee1d a3bf 19c2 ea3d a67f a7bf 28b2 8fbf

t_conv1_bn.running_var f4 [32]
0.9973078 1.8132969 1.1594805 0.7790741 0.80091894 1.0792153 1.5827276 0.9608545
0.83892137 1.3837651 1.1573349 0.86853224 1.0672073 1.2150829 0.36735857 1.7097446
0.41686556 1.6105024 1.2990212 0.9580141 0.6386428 0.8468918 0.857454 0.8040821
1.175916 0.9290696 0.7239774 0.51060593 1.3169515 0.5321217 1.105783 1.0686083
00000000: 904f 7f3f 1d1a e83f db69 943f 6671 473f
00000010: 0609 4d3f ba23 8a3f d196 ca3f 8ffa 753f
00000020: 8dc3 563f 371f b13f 8d23 943f 2158 5e3f
00000030: 409a 883f d687 9b3f 6c16 bc3e e9d8 da3f
00000040: 676f d53e f124 ce3f 5446 a63f 6940 753f
00000050: 187e 233f e7cd 583f 1b82 5b3f 53d8 4d3f
00000060: 6a84 963f 81d7 6d3f 9556 393f 12b7 023f
00000070: de91 a83f 2139 083f 4c8a 8d3f 28c8 883f

t_conv2.weight f4 [32, 2, 4, 4]
0.20702402 0.18367939 0.25011557 0.17443247 -0.039205838 0.26328412 0.06301033 0.028878553
0.14330335 0.1264213 0.2690913 0.2567827 0.06354396 0.14525265 0.03551553 0.087557174
0.2905214 0.13426994 0.22684833 0.2567317 0.012873351 0.18074882 0.30033368 0.120659254
0.13246605 0.007428576 0.26240003 0.12850317 0.037408195 -0.08410959 0.15146059 0.12131081
-0.046395484 0.13492884 0.23518893 0.086866155 0.12347505 0.3121705 0.24386497 0.10608276
0.10226687 0.34608886 0.116337225 0.19176605 0.20801488 0.028484099 0.28628293 0.022814251
-0.0053630373 0.04667176 0.105737105 0.18726614 0.181535 0.07789044 0.04120367 0.003410218
0.100888275 0.17776552 0.26682976 0.20581913 0.07047381 0.05680572 0.048369274 0.13566409
-0.060689636 -0.08393153 -0.16892971 -0.03705851 -0.1253132 -0.09072218 -0.1288378 -0.10066656
-0.1145391 -0.016773973 -0.14835504 0.10678172 -0.067630835 0.11167575 0.0055289366 0.020829134
0.00046892586 0.058244303 0.19659455 0.20398101 0.030285101 0.3021965 0.28260058 0.11316397
0.22826575 0.1617415 0.251011 0.1427113 0.01874778 0.10814183 0.20775385 0.030620892
-0.0102617135 0.055080477 0.032874696 0.12315549 0.066646196 0.08866544 0.1594145 0.039549913
-0.17766865 -0.0137388455 -0.15606199 0.017304575 0.0058611655 -0.010819698 -0.03574095 -0.03922019
0.069114074 0.14542481 0.20925184 -0.057947822 0.12901002 0.38052362 0.21745047 0.07041647
0.18319163 0.121227205 0.036123727 0.016178478 0.11680148 0.049382724 -0.037875615 -0.034345176
0.19071673 0.24717838 0.106710024 0.22472815 0.34205058 0.19111931 0.18816006 0.28283107
0.29186946 0.15160428 0.2643998 0.11040923 0.08814285 0.15455405 0.09785448 0.19249253
-0.11900647 -0.11338902 -0.16365758 -0.07432581 -0.20414393 -0.20153655 -0.0075286776 -0.25317472
-0.18016587 -0.27375397 -0.20649788 -0.26582688 -0.27696273 -0.30067152 -0.23849264 -0.13995889
-0.021972489 0.16718629 0.14287892 0.14156438 0.25712717 0.15905154 0.3347764 0.2480641
0.07457852 0.33667013 0.36456788 0.15431122 0.046442978 0.02843881 0.048367012 0.087019436
0.058107805 0.11161099 -0.048157297 0.17898786 -0.14606978 0.26180002 -0.0061746114 0.09438716
-0.09680877 0.119400494 -0.0026325306 0.166121 0.07244364 -0.010945559 0.109770015 0.14597844
-0.12420373 -0.13586392 0.0622673 -0.05778483 -0.24845617 -0.09634653 -0.06771387 -0.098147765
-0.22024971 -0.16110355 -0.006747237 -0.17456026 -0.22443946 -0.0076430812 -0.12068025 -0.117015906
0.18211673 0.11822666 0.110779546 -0.01852305 0.12694098 0.26615885 0.3208321 0.018163567
0.14785048 0.1547532 0.16500668 0.19863082 0.14170066 0.2080841 0.2269005 0.089183405
0.15332004 0.035908483 0.1669183 0.22685906 -0.084464155 0.029973269 0.20042604 0.060119916
0.2459127 0.06380708 0.093642585 0.22086133 0.14642653 0.17036796 0.0020693098 -0.028227424
0.22698249 0.1441696 0.24267656 0.014716038 0.12100544 0.21656615 0.24154791 0.26739335
0.11227149 0.24152066 0.21806055 0.21957831 0.076057866 0.29416817 0.07035042 0.2301602
00000000: 1bfe 533e 7316 3c3e 260f 803e 6d9e 323e
00000010: 4d96 20bd 2dcd 863e 8f0b 813d b792 ec3c
00000020: 1dbe 123e 9674 013e 56c6 893e 0679 833e
00000030: 5623 823d 1cbd 143e bb78 113d 2d51 b33d
00000040: 39bf 943e 0f7e 093e ee4a 683e 5672 833e
00000050: bfea 523c 3816 393e 56c5 993e 331c f73d
00000060: 2ea5 073e 696b f33b 4c59 863e 5696 033e
00000070: 5639 193d a641 acbd 7c18 1b3e cd71 f83d
00000080: 3109 3ebd c92a 0a3e 5ed5 703e e2e6 b13d
00000090: 7de0 fc3d d0d4 9f3e bdb7 793e eb41 d93d
000000a0: 4b71 d13d 8f32 b13e 3642 ee3d 525e 443e
000000b0: da01 553e 7c57 e93c ad93 923e f4e4 ba3c
000000c0: 6bbc afbb e32a 3f3d b28c d83d b2c2 3f3e
000000d0: 50e4 393e 0685 9f3d 2ec5 283d f77d 5f3b
000000e0: 839e ce3d 2a08 363e e99d 883e 40c2 523e
000000f0: 9354 903d 1dad 683d dc1e 463d 87eb 0a3e
00000100: b295 78bd 4be4 abbd e9fb 2cbe aaca 17bd
00000110: 1a52 00be 8dcc b9bd 0eee 03be 452a cebd
00000120: 7a93 eabd 9269 89bc 62ea 17be 60b0 da3d
00000130: 0982 8abd 41b6 e43d 152c b53b dca1 aa3c
00000140: 2ada f539 9491 6e3d 1550 493e 66e0 503e
00000150: 7618 f83c 80b9 9a3e 06b1 903e 83c2 e73d
00000160: 7fbe 693e 909f 253e 8484 803e e922 123e
00000170: f294 993c 7779 dd3d 6dbd 543e aad8 fa3c
00000180: bf20 28bc 119c 613d 9ea7 063d f238 fc3d
00000190: cd7d 883d 3a96 b53d 8e3d 233e 17ff 213d
000001a0: c5ee 35be e518 61bc b7ce 1fbe 53c2 8d3c
000001b0: 050f c03b 1a45 31bc 1a65 12bd 5aa5 20bd
000001c0: ae8b 8d3d 3eea 143e 1d46 563e b25a 6dbd
000001d0: 341b 043e fed3 c23e 56ab 5e3e 8336 903d
000001e0: 9696 3b3e f845 f83d 79f6 133d ba88 843c
000001f0: 9d35 ef3d 8a45 4a3d 7623 1bbd 87ad 0cbd
00000200: 3f4b 433e 541c 7d3e c98a da3d 231f 663e
00000210: 4121 af3e c8b4 433e 08ad 403e 3ccf 903e
00000220: ea6f 953e 273e 1b3e 695f 873e 3c1e e23d
00000230: 3d84 b43d 6b43 1e3e ee67 c83d c31c 453e
00000240: aab9 f3bd 8138 e8bd da95 27be 2138 98bd
00000250: 1b0b 51be 995f 4ebe 20b3 f6bb 1ea0 81be
00000260: 677d 38be 7b29 8cbe 2e74 53be 761a 88be
00000270: 0fce 8dbe 9ef1 99be 6a37 74be 6251 0fbe
00000280: a6ff b3bc e232 2b3e da4e 123e 41f6 103e
00000290: 2ca6 833e 68de 223e d067 ab3e 8404 7e3e
000002a0: a0bc 983d 0760 ac3e a4a8 ba3e c303 1e3e
000002b0: fe3a 3e3d 82f8 e83c 7d1c 463d 3f37 b23d
000002c0: 7302 6e3d 4d94 e43d 9640 45bd 9848 373e
000002d0: 5193 15be a70a 863e 6554 cabb 0e4e c13d
000002e0: ad43 c6bd 3f88 f43d 8986 2cbb a01b 2a3e
000002f0: 555d 943d 0055 33bc 1acf e03d 5f7b 153e
00000300: 865e febd e91f 0bbe ff0b 7f3d c9af 6cbd
00000310: 4b6b 7ebe 5451 c5bd 92ad 8abd b201 c9bd
00000320: 2489 61be 54f8 24be ed17 ddbb edbf 32be
00000330: 75d3 65be d072 fabb 3527 f7bd 09a6 efbd
00000340: cf7c 3a3e d220 f23d 63e0 e23d a7bd 97bc
00000350: d1fc 013e f945 883e 1b44 a43e c3cb 943c
00000360: 1e66 173e 9f77 1e3e 83f7 283e e165 4b3e
00000370: fa19 113e 0014 553e 9b58 683e caa5 b63d
00000380: eeff 1c3e c614 133d a1ec 2a3e be4d 683e
00000390: 8bfb acbd 808a f53c 7c3c 4d3e 4d40 763d
000003a0: 8ad0 7b3e 49ad 823d afc7 bf3d 7929 623e
000003b0: d6f0 153e f074 2e3e 429d 073b 333d e7bc
000003c0: 196e 683e 32a1 133e 3480 783e 891b 713c
000003d0: b3d1 f73d 84c3 5d3e 5658 773e c8e7 883e
000003e0: 98ee e53d 3151 773e 444b 5f3e 23d9 603e
000003f0: 3ac4 9b3d 369d 963e e213 903d 1eaf 6b3e

t_conv2.bias f4 [2]
0.02979821 -0.09736586
00000000: 601b f43c c167 c7bd
